…
2022-10-09 11:14:08,437 INFO: Number of test images in Set14: 14
2022-10-09 11:14:08,450 INFO: Dataset [PairedImageDataset] - B100 is built.
2022-10-09 11:14:08,450 INFO: Number of test images in B100: 100
2022-10-09 11:14:08,462 INFO: Dataset [PairedImageDataset] - Urban100 is built.
2022-10-09 11:14:08,463 INFO: Number of test images in Urban100: 100
2022-10-09 11:14:08,473 INFO: Dataset [PairedImageDataset] - DIV2K100 is built.
2022-10-09 11:14:08,473 INFO: Number of test images in DIV2K100: 100
2022-10-09 11:14:08,479 INFO: Network [ETDSForInference] is created.
2022-10-09 11:14:28,167 INFO: ETDSForInference(
  (conv_first): Conv2d(3, 48, kernel_size=(3, 3), stride=(1, 1), padding=(1, 1))
  (backbone_convs): ModuleList(
    (0): Conv2d(48, 48, kernel_size=(3, 3), stride=(1, 1), padding=(1, 1))
    (1): Conv2d(48, 48, kernel_size=(3, 3), stride=(1, 1), padding=(1, 1))
    (2): Conv2d(48, 48, kernel_size=(3, 3), stride=(1, 1), padding=(1, 1))
    (3): Conv2d(48, 48, kernel_size=(3, 3), stride=(1, 1), padding=(1, 1))
    (4): Conv2d(48, 48, kernel_size=(3, 3), stride=(1, 1), padding=(1, 1))
    (5): Conv2d(48, 48, kernel_size=(3, 3), stride=(1, 1), padding=(1, 1))
    (6): Conv2d(48, 48, kernel_size=(3, 3), stride=(1, 1), padding=(1, 1))
  )
  (conv_last): Conv2d(48, 48, kernel_size=(3, 3), stride=(1, 1), padding=(1, 1))
  (conv_clip): Conv2d(48, 48, kernel_size=(1, 1), stride=(1, 1))
  (upsampler): PixelShuffle(upscale_factor=4)
)
2022-10-09 11:14:28,168 INFO: Network: ETDSForInference, with parameters: 169968
2022-10-09 11:14:28,169 INFO: Loading ETDSForInference model from experiments/pretrained_models/ETDS/ETDS_M7C48_x4.pth.
2022-10-09 11:14:28,172 INFO: Model [IRModel] is created.
2022-10-09 11:14:28,172 INFO: Testing Set5...
2022-10-09 11:14:31,247 INFO: Validation [epoch ETDS_M7C48_x4] Set5
…
