…
2022-10-05 04:20:27,738 INFO: Number of test images in Set14: 14
2022-10-05 04:20:27,741 INFO: Dataset [PairedImageDataset] - B100 is built.
2022-10-05 04:20:27,741 INFO: Number of test images in B100: 100
2022-10-05 04:20:27,743 INFO: Dataset [PairedImageDataset] - Urban100 is built.
2022-10-05 04:20:27,743 INFO: Number of test images in Urban100: 100
2022-10-05 04:20:27,745 INFO: Dataset [PairedImageDataset] - DIV2K100 is built.
2022-10-05 04:20:27,745 INFO: Number of test images in DIV2K100: 100
2022-10-05 04:20:27,748 INFO: Network [ABPN_ET] is created.
2022-10-05 04:20:28,828 INFO: ABPN_ET(
  (backbone): Sequential(
    (0): Conv2d(3, 44, kernel_size=(3, 3), stride=(1, 1), padding=(1, 1))
    (1): ReLU()
    (2): Sequential(
      (0): Conv2d(44, 44, kernel_size=(3, 3), stride=(1, 1), padding=(1, 1))
      (1): ReLU()
    )
    (3): Sequential(
      (0): Conv2d(44, 44, kernel_size=(3, 3), stride=(1, 1), padding=(1, 1))
      (1): ReLU()
    )
    (4): Sequential(
      (0): Conv2d(44, 44, kernel_size=(3, 3), stride=(1, 1), padding=(1, 1))
      (1): ReLU()
    )
    (5): Sequential(
      (0): Conv2d(44, 44, kernel_size=(3, 3), stride=(1, 1), padding=(1, 1))
      (1): ReLU()
    )
    (6): Sequential(
      (0): Conv2d(44, 44, kernel_size=(3, 3), stride=(1, 1), padding=(1, 1))
      (1): ReLU()
    )
    (7): Sequential(
      (0): Conv2d(44, 44, kernel_size=(3, 3), stride=(1, 1), padding=(1, 1))
      (1): ReLU()
    )
    (8): Conv2d(44, 30, kernel_size=(3, 3), stride=(1, 1), padding=(1, 1))
    (9): ReLU()
    (10): Conv2d(30, 28, kernel_size=(3, 3), stride=(1, 1), padding=(1, 1))
    (11): ReLU()
    (12): Conv2d(28, 28, kernel_size=(1, 1), stride=(1, 1))
    (13): ReLU()
  )
  (upsampler): PixelShuffle(upscale_factor=3)
)
2022-10-05 04:20:28,828 INFO: Network: ABPN_ET, with parameters: 126350
2022-10-05 04:20:28,829 INFO: Loading ABPN_ET model from experiments/pretrained_models/ABPN/ABPN_ET_M6C40_x3.pth.
2022-10-05 04:20:28,832 INFO: Model [IRModel] is created.
2022-10-05 04:20:28,832 INFO: Testing Set5...
…
