…
    visualization: experiments/ETDS_M4C32_x2/visualization
  ]

2022-10-11 10:12:56,938 INFO: Dataset [PairedImageDataset] - DIV2K is built.
2022-10-11 10:12:56,940 INFO: Training statistics:
	Number of train images: 32592
	Dataset enlarge ratio: 10
	Batch size per gpu: 32
	World size (gpu number): 1
	Require iter number per epoch: 10185
	Total epochs: 158; iters: 1600000.
2022-10-11 10:12:56,940 INFO: Dataset [PairedImageDataset] - Set5 is built.
2022-10-11 10:12:56,941 INFO: Number of val images/folders in Set5: 5
2022-10-11 10:12:56,966 INFO: Network [ETDS] is created.
2022-10-11 10:12:59,248 INFO: ETDS(
  (conv_first): Conv2d(3, 29, kernel_size=(3, 3), stride=(1, 1), padding=(1, 1))
  (conv_residual_first): Conv2d(3, 3, kernel_size=(3, 3), stride=(1, 1), padding=(1, 1))
  (backbone_convs): ModuleList(
    (0): Conv2d(29, 29, kernel_size=(3, 3), stride=(1, 1), padding=(1, 1))
    (1): Conv2d(29, 29, kernel_size=(3, 3), stride=(1, 1), padding=(1, 1))
    (2): Conv2d(29, 29, kernel_size=(3, 3), stride=(1, 1), padding=(1, 1))
    (3): Conv2d(29, 29, kernel_size=(3, 3), stride=(1, 1), padding=(1, 1))
  )
  (residual_convs): ModuleList(
    (0): Conv2d(3, 3, kernel_size=(3, 3), stride=(1, 1), padding=(1, 1))
    (1): Conv2d(3, 3, kernel_size=(3, 3), stride=(1, 1), padding=(1, 1))
    (2): Conv2d(3, 3, kernel_size=(3, 3), stride=(1, 1), padding=(1, 1))
    (3): Conv2d(3, 3, kernel_size=(3, 3), stride=(1, 1), padding=(1, 1))
  )
  (add_residual_convs): ModuleList(
    (0): Conv2d(3, 29, kernel_size=(3, 3), stride=(1, 1), padding=(1, 1))
    (1): Conv2d(3, 29, kernel_size=(3, 3), stride=(1, 1), padding=(1, 1))
    (2): Conv2d(3, 29, kernel_size=(3, 3), stride=(1, 1), padding=(1, 1))
    (3): Conv2d(3, 29, kernel_size=(3, 3), stride=(1, 1), padding=(1, 1))
  )
  (conv_last): Conv2d(29, 12, kernel_size=(3, 3), stride=(1, 1), padding=(1, 1))
  (conv_residual_last): Conv2d(3, 12, kernel_size=(3, 3), stride=(1, 1), padding=(1, 1))
  (upsampler): PixelShuffle(upscale_factor=2)
)
2022-10-11 10:12:59,249 INFO: Network: ETDS, with parameters: 38352
2022-10-11 10:12:59,249 INFO: Use Exponential Moving Average with decay: 0.999
2022-10-11 10:12:59,254 INFO: Network [ETDS] is created.
2022-10-11 10:12:59,257 INFO: Loss [L1Loss] is created.
2022-10-11 10:12:59,259 INFO: Model [ETDSModel] is created.
…
