…
2022-10-10 09:59:21,845 INFO: Number of test images in Set14: 14
2022-10-10 09:59:21,848 INFO: Dataset [PairedImageDataset] - B100 is built.
2022-10-10 09:59:21,848 INFO: Number of test images in B100: 100
2022-10-10 09:59:21,851 INFO: Dataset [PairedImageDataset] - Urban100 is built.
2022-10-10 09:59:21,851 INFO: Number of test images in Urban100: 100
2022-10-10 09:59:21,855 INFO: Dataset [PairedImageDataset] - DIV2K100 is built.
2022-10-10 09:59:21,855 INFO: Number of test images in DIV2K100: 100
2022-10-10 09:59:21,859 INFO: Network [ETDS] is created.
2022-10-10 09:59:24,504 INFO: ETDS(
  (conv_first): Conv2d(3, 29, kernel_size=(3, 3), stride=(1, 1), padding=(1, 1))
  (conv_residual_first): Conv2d(3, 3, kernel_size=(3, 3), stride=(1, 1), padding=(1, 1))
  (backbone_convs): ModuleList(
    (0): Conv2d(29, 29, kernel_size=(3, 3), stride=(1, 1), padding=(1, 1))
    (1): Conv2d(29, 29, kernel_size=(3, 3), stride=(1, 1), padding=(1, 1))
    (2): Conv2d(29, 29, kernel_size=(3, 3), stride=(1, 1), padding=(1, 1))
    (3): Conv2d(29, 29, kernel_size=(3, 3), stride=(1, 1), padding=(1, 1))
    (4): Conv2d(29, 29, kernel_size=(3, 3), stride=(1, 1), padding=(1, 1))
    (5): Conv2d(29, 29, kernel_size=(3, 3), stride=(1, 1), padding=(1, 1))
  )
  (residual_convs): ModuleList(
    (0): Conv2d(3, 3, kernel_size=(3, 3), stride=(1, 1), padding=(1, 1))
    (1): Conv2d(3, 3, kernel_size=(3, 3), stride=(1, 1), padding=(1, 1))
    (2): Conv2d(3, 3, kernel_size=(3, 3), stride=(1, 1), padding=(1, 1))
    (3): Conv2d(3, 3, kernel_size=(3, 3), stride=(1, 1), padding=(1, 1))
    (4): Conv2d(3, 3, kernel_size=(3, 3), stride=(1, 1), padding=(1, 1))
    (5): Conv2d(3, 3, kernel_size=(3, 3), stride=(1, 1), padding=(1, 1))
  )
  (add_residual_convs): ModuleList(
    (0): Conv2d(3, 29, kernel_size=(3, 3), stride=(1, 1), padding=(1, 1))
    (1): Conv2d(3, 29, kernel_size=(3, 3), stride=(1, 1), padding=(1, 1))
    (2): Conv2d(3, 29, kernel_size=(3, 3), stride=(1, 1), padding=(1, 1))
    (3): Conv2d(3, 29, kernel_size=(3, 3), stride=(1, 1), padding=(1, 1))
    (4): Conv2d(3, 29, kernel_size=(3, 3), stride=(1, 1), padding=(1, 1))
    (5): Conv2d(3, 29, kernel_size=(3, 3), stride=(1, 1), padding=(1, 1))
  )
  (conv_last): Conv2d(29, 48, kernel_size=(3, 3), stride=(1, 1), padding=(1, 1))
  (conv_residual_last): Conv2d(3, 48, kernel_size=(3, 3), stride=(1, 1), padding=(1, 1))
  (upsampler): PixelShuffle(upscale_factor=4)
)
2022-10-10 09:59:24,504 INFO: Network: ETDS, with parameters: 65780
2022-10-10 09:59:24,507 INFO: Loading ETDS model from experiments/pretrained_models/ETDS/ablations/ETDS_M6C32_x4_normal_loss.pth.
2022-10-10 09:59:24,511 INFO: Model [ETDSModel] is created.
2022-10-10 09:59:24,511 INFO: Testing Set5...
…
