…
2022-10-09 11:02:40,781 INFO: Number of test images in Set14: 14
2022-10-09 11:02:40,786 INFO: Dataset [PairedImageDataset] - B100 is built.
2022-10-09 11:02:40,787 INFO: Number of test images in B100: 100
2022-10-09 11:02:40,792 INFO: Dataset [PairedImageDataset] - Urban100 is built.
2022-10-09 11:02:40,794 INFO: Number of test images in Urban100: 100
2022-10-09 11:02:40,803 INFO: Dataset [PairedImageDataset] - DIV2K100 is built.
2022-10-09 11:02:40,804 INFO: Number of test images in DIV2K100: 100
2022-10-09 11:02:40,809 INFO: Network [ETDSForInference] is created.
2022-10-09 11:02:46,964 INFO: ETDSForInference(
  (conv_first): Conv2d(3, 48, kernel_size=(3, 3), stride=(1, 1), padding=(1, 1))
  (backbone_convs): ModuleList(
    (0): Conv2d(48, 48, kernel_size=(3, 3), stride=(1, 1), padding=(1, 1))
    (1): Conv2d(48, 48, kernel_size=(3, 3), stride=(1, 1), padding=(1, 1))
    (2): Conv2d(48, 48, kernel_size=(3, 3), stride=(1, 1), padding=(1, 1))
    (3): Conv2d(48, 48, kernel_size=(3, 3), stride=(1, 1), padding=(1, 1))
    (4): Conv2d(48, 48, kernel_size=(3, 3), stride=(1, 1), padding=(1, 1))
    (5): Conv2d(48, 48, kernel_size=(3, 3), stride=(1, 1), padding=(1, 1))
    (6): Conv2d(48, 48, kernel_size=(3, 3), stride=(1, 1), padding=(1, 1))
  )
  (conv_last): Conv2d(48, 28, kernel_size=(3, 3), stride=(1, 1), padding=(1, 1))
  (conv_clip): Conv2d(28, 28, kernel_size=(1, 1), stride=(1, 1))
  (upsampler): PixelShuffle(upscale_factor=3)
)
2022-10-09 11:02:46,965 INFO: Network: ETDSForInference, with parameters: 159768
2022-10-09 11:02:46,968 INFO: Loading ETDSForInference model from experiments/pretrained_models/ETDS/ETDS_M7C48_x3.pth.
2022-10-09 11:02:47,270 INFO: Model [IRModel] is created.
2022-10-09 11:02:47,270 INFO: Testing Set5...
2022-10-09 11:02:50,905 INFO: Validation [epoch ETDS_M7C48_x3] Set5
…
