…
2022-10-08 19:38:38,675 INFO: Number of test images in Set14: 14
2022-10-08 19:38:38,677 INFO: Dataset [PairedImageDataset] - B100 is built.
2022-10-08 19:38:38,677 INFO: Number of test images in B100: 100
2022-10-08 19:38:38,680 INFO: Dataset [PairedImageDataset] - Urban100 is built.
2022-10-08 19:38:38,680 INFO: Number of test images in Urban100: 100
2022-10-08 19:38:38,682 INFO: Dataset [PairedImageDataset] - DIV2K100 is built.
2022-10-08 19:38:38,683 INFO: Number of test images in DIV2K100: 100
2022-10-08 19:38:38,706 INFO: Network [ETDSAblationAdvancedResidual] is created.
2022-10-08 19:38:38,708 INFO: ETDSAblationAdvancedResidual(
  (conv_first): Conv2d(3, 29, kernel_size=(3, 3), stride=(1, 1), padding=(1, 1))
  (conv_residual_first): Conv2d(3, 3, kernel_size=(3, 3), stride=(1, 1), padding=(1, 1))
  (backbone_convs): ModuleList(
    (0): Conv2d(29, 29, kernel_size=(3, 3), stride=(1, 1), padding=(1, 1))
    (1): Conv2d(29, 29, kernel_size=(3, 3), stride=(1, 1), padding=(1, 1))
    (2): Conv2d(29, 29, kernel_size=(3, 3), stride=(1, 1), padding=(1, 1))
    (3): Conv2d(29, 29, kernel_size=(3, 3), stride=(1, 1), padding=(1, 1))
    (4): Conv2d(29, 29, kernel_size=(3, 3), stride=(1, 1), padding=(1, 1))
    (5): Conv2d(29, 29, kernel_size=(3, 3), stride=(1, 1), padding=(1, 1))
  )
  (residual_convs): ModuleList(
    (0): Conv2d(3, 3, kernel_size=(3, 3), stride=(1, 1), padding=(1, 1))
    (1): Conv2d(3, 3, kernel_size=(3, 3), stride=(1, 1), padding=(1, 1))
    (2): Conv2d(3, 3, kernel_size=(3, 3), stride=(1, 1), padding=(1, 1))
    (3): Conv2d(3, 3, kernel_size=(3, 3), stride=(1, 1), padding=(1, 1))
    (4): Conv2d(3, 3, kernel_size=(3, 3), stride=(1, 1), padding=(1, 1))
    (5): Conv2d(3, 3, kernel_size=(3, 3), stride=(1, 1), padding=(1, 1))
  )
  (add_residual_convs): ModuleList(
    (0): Conv2d(3, 29, kernel_size=(3, 3), stride=(1, 1), padding=(1, 1))
    (1): Conv2d(3, 29, kernel_size=(3, 3), stride=(1, 1), padding=(1, 1))
    (2): Conv2d(3, 29, kernel_size=(3, 3), stride=(1, 1), padding=(1, 1))
    (3): Conv2d(3, 29, kernel_size=(3, 3), stride=(1, 1), padding=(1, 1))
    (4): Conv2d(3, 29, kernel_size=(3, 3), stride=(1, 1), padding=(1, 1))
    (5): Conv2d(3, 29, kernel_size=(3, 3), stride=(1, 1), padding=(1, 1))
  )
  (advanced_residual_convs): ModuleList(
    (0): Conv2d(29, 3, kernel_size=(3, 3), stride=(1, 1), padding=(1, 1))
    (1): Conv2d(29, 3, kernel_size=(3, 3), stride=(1, 1), padding=(1, 1))
    (2): Conv2d(29, 3, kernel_size=(3, 3), stride=(1, 1), padding=(1, 1))
    (3): Conv2d(29, 3, kernel_size=(3, 3), stride=(1, 1), padding=(1, 1))
    (4): Conv2d(29, 3, kernel_size=(3, 3), stride=(1, 1), padding=(1, 1))
    (5): Conv2d(29, 3, kernel_size=(3, 3), stride=(1, 1), padding=(1, 1))
  )
  (conv_last): Conv2d(29, 48, kernel_size=(3, 3), stride=(1, 1), padding=(1, 1))
  (conv_residual_last): Conv2d(3, 48, kernel_size=(3, 3), stride=(1, 1), padding=(1, 1))
  (upsampler): PixelShuffle(upscale_factor=4)
)
2022-10-08 19:38:38,708 INFO: Network: ETDSAblationAdvancedResidual, with parameters: 70496
2022-10-08 19:38:38,711 INFO: Loading ETDSAblationAdvancedResidual model from experiments/pretrained_models/ETDS/ablations/ETDS_M6C32_x4_advance_residual.pth.
2022-10-08 19:38:38,715 INFO: Model [ETDSModel] is created.
…
