…
    visualization: experiments/ETDS_M5C16_x2/visualization
  ]

2022-10-11 10:11:50,540 INFO: Dataset [PairedImageDataset] - DIV2K is built.
2022-10-11 10:11:50,541 INFO: Training statistics:
	Number of train images: 32592
	Dataset enlarge ratio: 10
	Batch size per gpu: 32
	World size (gpu number): 1
	Require iter number per epoch: 10185
	Total epochs: 158; iters: 1600000.
2022-10-11 10:11:50,542 INFO: Dataset [PairedImageDataset] - Set5 is built.
2022-10-11 10:11:50,542 INFO: Number of val images/folders in Set5: 5
2022-10-11 10:11:50,574 INFO: Network [ETDS] is created.
2022-10-11 10:11:53,023 INFO: ETDS(
  (conv_first): Conv2d(3, 13, kernel_size=(3, 3), stride=(1, 1), padding=(1, 1))
  (conv_residual_first): Conv2d(3, 3, kernel_size=(3, 3), stride=(1, 1), padding=(1, 1))
  (backbone_convs): ModuleList(
    (0): Conv2d(13, 13, kernel_size=(3, 3), stride=(1, 1), padding=(1, 1))
    (1): Conv2d(13, 13, kernel_size=(3, 3), stride=(1, 1), padding=(1, 1))
    (2): Conv2d(13, 13, kernel_size=(3, 3), stride=(1, 1), padding=(1, 1))
    (3): Conv2d(13, 13, kernel_size=(3, 3), stride=(1, 1), padding=(1, 1))
    (4): Conv2d(13, 13, kernel_size=(3, 3), stride=(1, 1), padding=(1, 1))
  )
  (residual_convs): ModuleList(
    (0): Conv2d(3, 3, kernel_size=(3, 3), stride=(1, 1), padding=(1, 1))
    (1): Conv2d(3, 3, kernel_size=(3, 3), stride=(1, 1), padding=(1, 1))
    (2): Conv2d(3, 3, kernel_size=(3, 3), stride=(1, 1), padding=(1, 1))
    (3): Conv2d(3, 3, kernel_size=(3, 3), stride=(1, 1), padding=(1, 1))
    (4): Conv2d(3, 3, kernel_size=(3, 3), stride=(1, 1), padding=(1, 1))
  )
  (add_residual_convs): ModuleList(
    (0): Conv2d(3, 13, kernel_size=(3, 3), stride=(1, 1), padding=(1, 1))
    (1): Conv2d(3, 13, kernel_size=(3, 3), stride=(1, 1), padding=(1, 1))
    (2): Conv2d(3, 13, kernel_size=(3, 3), stride=(1, 1), padding=(1, 1))
    (3): Conv2d(3, 13, kernel_size=(3, 3), stride=(1, 1), padding=(1, 1))
    (4): Conv2d(3, 13, kernel_size=(3, 3), stride=(1, 1), padding=(1, 1))
  )
  (conv_last): Conv2d(13, 12, kernel_size=(3, 3), stride=(1, 1), padding=(1, 1))
  (conv_residual_last): Conv2d(3, 12, kernel_size=(3, 3), stride=(1, 1), padding=(1, 1))
  (upsampler): PixelShuffle(upscale_factor=2)
)
2022-10-11 10:11:53,024 INFO: Network: ETDS, with parameters: 12110
2022-10-11 10:11:53,024 INFO: Use Exponential Moving Average with decay: 0.999
2022-10-11 10:11:53,027 INFO: Network [ETDS] is created.
2022-10-11 10:11:53,030 INFO: Loss [L1Loss] is created.
2022-10-11 10:11:53,031 INFO: Model [ETDSModel] is created.
…
