…
2022-10-08 19:57:42,319 INFO: Number of test images in Set14: 14
2022-10-08 19:57:42,321 INFO: Dataset [PairedImageDataset] - B100 is built.
2022-10-08 19:57:42,321 INFO: Number of test images in B100: 100
2022-10-08 19:57:42,324 INFO: Dataset [PairedImageDataset] - Urban100 is built.
2022-10-08 19:57:42,324 INFO: Number of test images in Urban100: 100
2022-10-08 19:57:42,327 INFO: Dataset [PairedImageDataset] - DIV2K100 is built.
2022-10-08 19:57:42,328 INFO: Number of test images in DIV2K100: 100
2022-10-08 19:57:42,354 INFO: Network [ETDSAblationResidual] is created.
2022-10-08 19:57:45,129 INFO: ETDSAblationResidual(
  (conv_first): Conv2d(3, 29, kernel_size=(3, 3), stride=(1, 1), padding=(1, 1))
  (conv_residual_first): Conv2d(3, 3, kernel_size=(3, 3), stride=(1, 1), padding=(1, 1))
  (backbone_convs): ModuleList(
    (0): Conv2d(29, 29, kernel_size=(3, 3), stride=(1, 1), padding=(1, 1))
    (1): Conv2d(29, 29, kernel_size=(3, 3), stride=(1, 1), padding=(1, 1))
    (2): Conv2d(29, 29, kernel_size=(3, 3), stride=(1, 1), padding=(1, 1))
    (3): Conv2d(29, 29, kernel_size=(3, 3), stride=(1, 1), padding=(1, 1))
    (4): Conv2d(29, 29, kernel_size=(3, 3), stride=(1, 1), padding=(1, 1))
    (5): Conv2d(29, 29, kernel_size=(3, 3), stride=(1, 1), padding=(1, 1))
  )
  (residual_convs): ModuleList(
    (0): Conv2d(3, 3, kernel_size=(3, 3), stride=(1, 1), padding=(1, 1))
    (1): Conv2d(3, 3, kernel_size=(3, 3), stride=(1, 1), padding=(1, 1))
    (2): Conv2d(3, 3, kernel_size=(3, 3), stride=(1, 1), padding=(1, 1))
    (3): Conv2d(3, 3, kernel_size=(3, 3), stride=(1, 1), padding=(1, 1))
    (4): Conv2d(3, 3, kernel_size=(3, 3), stride=(1, 1), padding=(1, 1))
    (5): Conv2d(3, 3, kernel_size=(3, 3), stride=(1, 1), padding=(1, 1))
  )
  (conv_last): Conv2d(29, 48, kernel_size=(3, 3), stride=(1, 1), padding=(1, 1))
  (conv_residual_last): Conv2d(3, 48, kernel_size=(3, 3), stride=(1, 1), padding=(1, 1))
  (upsampler): PixelShuffle(upscale_factor=4)
)
2022-10-08 19:57:45,130 INFO: Network: ETDSAblationResidual, with parameters: 60908
2022-10-08 19:57:45,133 INFO: Loading ETDSAblationResidual model from experiments/pretrained_models/ETDS/ablations/ETDS_M6C32_x4_only_residual.pth.
2022-10-08 19:57:45,216 INFO: Model [ETDSModel] is created.
2022-10-08 19:57:45,217 INFO: Testing Set5...
…
