…
2022-10-09 11:00:51,221 INFO: Number of test images in Set14: 14
2022-10-09 11:00:51,224 INFO: Dataset [PairedImageDataset] - B100 is built.
2022-10-09 11:00:51,224 INFO: Number of test images in B100: 100
2022-10-09 11:00:51,228 INFO: Dataset [PairedImageDataset] - Urban100 is built.
2022-10-09 11:00:51,228 INFO: Number of test images in Urban100: 100
2022-10-09 11:00:51,231 INFO: Dataset [PairedImageDataset] - DIV2K100 is built.
2022-10-09 11:00:51,231 INFO: Number of test images in DIV2K100: 100
2022-10-09 11:00:51,234 INFO: Network [ETDSForInference] is created.
2022-10-09 11:01:28,443 INFO: ETDSForInference(
  (conv_first): Conv2d(3, 48, kernel_size=(3, 3), stride=(1, 1), padding=(1, 1))
  (backbone_convs): ModuleList(
    (0): Conv2d(48, 48, kernel_size=(3, 3), stride=(1, 1), padding=(1, 1))
    (1): Conv2d(48, 48, kernel_size=(3, 3), stride=(1, 1), padding=(1, 1))
    (2): Conv2d(48, 48, kernel_size=(3, 3), stride=(1, 1), padding=(1, 1))
    (3): Conv2d(48, 48, kernel_size=(3, 3), stride=(1, 1), padding=(1, 1))
    (4): Conv2d(48, 48, kernel_size=(3, 3), stride=(1, 1), padding=(1, 1))
    (5): Conv2d(48, 48, kernel_size=(3, 3), stride=(1, 1), padding=(1, 1))
    (6): Conv2d(48, 48, kernel_size=(3, 3), stride=(1, 1), padding=(1, 1))
  )
  (conv_last): Conv2d(48, 12, kernel_size=(3, 3), stride=(1, 1), padding=(1, 1))
  (conv_clip): Conv2d(12, 12, kernel_size=(1, 1), stride=(1, 1))
  (upsampler): PixelShuffle(upscale_factor=2)
)
2022-10-09 11:01:28,444 INFO: Network: ETDSForInference, with parameters: 152184
2022-10-09 11:01:28,446 INFO: Loading ETDSForInference model from experiments/pretrained_models/ETDS/ETDS_M7C48_x2.pth.
2022-10-09 11:01:28,628 INFO: Model [IRModel] is created.
2022-10-09 11:01:28,628 INFO: Testing Set5...
2022-10-09 11:01:38,102 INFO: Validation [epoch ETDS_M7C48_x2] Set5
…
